trainedNet_120_2000_100_70_rew250k.pt (torch, 3855 bytes, 8 tensors)

mlp.0.weight f4 [10, 6]
000000 0a f4 f8 bd a9 38 45 3e 21 83 df be 03 ba c1 be
       -0.12155922 0.19259895 -0.4365473 -0.37837228
000010 8e c6 0a 3e 00 7c 3c be 99 05 88 3e a4 20 ad 3e
       0.13552305 -0.18406677 0.2656677 0.33813965
000020 80 ca f7 3d f2 de b0 3e 31 ea 80 be 94 1b 66 bd
       0.12099171 0.34545094 -0.25178674 -0.056178644
000030 3b 86 a5 3e 75 88 0f be 34 8d eb be cf c9 95 3e
       0.32328972 -0.14016898 -0.46006167 0.2925553
000040 b1 03 1f 3e 94 46 b2 3e 4e d8 8f be a4 2f 2e be
       0.15528752 0.34819472 -0.28094715 -0.17010361
000050 28 c0 4e bd 64 2a d9 3b f4 a6 9e 3e 43 d5 af be
       -0.050476223 0.006627368 0.3098675 -0.34342393
000060 cd 3c 3e bd 67 61 88 3e ec 53 99 be 72 ea 2a 3e
       -0.046444703 0.26636812 -0.2994684 0.16690996
000070 e5 ea 8f 3e f0 be 52 3e a6 f4 de 3c 24 9c 16 be
       0.28108898 0.2058065 0.027216267 -0.14708
000080 af b4 da 3c 2f 5f 84 3d 23 50 c1 be 66 9f 80 be
       0.026697485 0.06463467 -0.37756452 -0.2512161
000090 44 26 b5 be 59 51 f2 3d a3 68 a4 be 16 bb b9 be
       -0.35380757 0.11831922 -0.3211108 -0.36275548
0000a0 9e 2d c7 3e b0 be 9a 3d 99 49 6d 3c f4 6f 5c be
       0.3890199 0.07555902 0.014482879 -0.21527082
0000b0 11 23 ef 3c 48 84 41 3e 1a e5 51 3e 48 c8 ef 3d
       0.029191526 0.18898118 0.20497552 0.117081225
0000c0 52 3d c7 3e 69 66 56 3e f1 58 26 3d b2 67 b2 3d
       0.3891397 0.20937504 0.040612165 0.087111846
0000d0 54 b7 8e be 35 e4 6e be fa 51 b3 3d b0 54 89 be
       -0.27874243 -0.23329242 0.0875587 -0.26822424
0000e0 22 17 13 3e 7e 88 1d be ae 62 c2 3e 8b 4a 28 bd
       0.14364293 -0.15384099 0.37965912 -0.041086715

mlp.0.bias f4 [10]
000000 21 f9 3f be 68 5f 8f be f7 b9 a0 3e 81 a9 a7 be
       -0.18747379 -0.28002477 0.3139188 -0.3274651
000010 4f 5b 0c 3e 3c 60 e7 3d e1 4f 31 bd 09 6a 77 be
       0.13706706 0.11297652 -0.04328907 -0.24161543
000020 a3 ca c5 be da fa ae 3e
       -0.38631162 0.3417576

mlp.2.weight f4 [10, 10]
000000 de 88 d3 3d d8 9a e4 bd 8b ac 60 3e 84 66 a3 be
       0.1032884 -0.111623466 0.2194082 -0.3191415
000010 8a 19 cf 3d 9e 00 59 bb 82 9d a3 be ab c3 a0 be
       0.10112293 -0.003311194 -0.31956106 -0.31399283
000020 33 d0 ad bd 07 ac 1f be 5c b3 06 3e a1 d7 99 be
       -0.084869765 -0.15592967 0.13154358 -0.30047324
000030 d8 58 61 3e bd 45 b9 bd 62 40 71 be f8 de af 3e
       0.22006547 -0.09046505 -0.23559716 0.343498
000040 b2 31 80 3e ac ed a9 3e 6a 6a f8 bd c4 bc f6 bd
       0.25037915 0.33189142 -0.12129672 -0.12047723
000050 ad e2 13 be 9c b7 fd bc 33 82 9d 3d ef 00 10 3d
       -0.14441939 -0.03097134 0.07690849 0.03515714
000060 69 06 7e be fb c2 c1 bd 90 56 7c be e1 38 52 3e
       -0.24807133 -0.09461018 -0.24642396 0.2052951
000070 dc cd 09 be 1d 8f 9d bd ef 32 a1 3e be c3 56 be
       -0.13457435 -0.07693312 0.31484172 -0.20973107
000080 f2 ac 8c be 71 8d 81 be a7 fc 70 be f0 cf 93 3d
       -0.27475697 -0.25303224 -0.23533879 0.07217395
000090 c2 2e c5 bd b2 a3 76 3d 57 45 72 b8 d2 49 9e bb
       -0.09628059 0.060214706 -5.7761874e-05 -0.0048305774
0000a0 29 4b 87 3e a5 f4 69 3d 8e 0a e6 bd ec 49 94 3e
       0.2642453 0.057118077 -0.11232482 0.28962648
0000b0 d8 af 57 be 2c 81 83 3e c7 d4 fa 3d 98 a7 79 3d
       -0.21063173 0.25684488 0.12247615 0.060950845
0000c0 0e 80 65 be 64 51 8f be 12 69 03 be e0 8e 32 3e
       -0.2241213 -0.27991784 -0.1283305 0.17437315
0000d0 c6 09 8c be ef 1b 1f 3d de 9d ca 3d 48 e0 30 be
       -0.27351207 0.038845 0.09893392 -0.17273057
0000e0 24 27 f1 bc 01 1e 8b 3d 9f e5 cc 3d 87 3a 90 be
       -0.029437609 0.06792832 0.10004734 -0.28169653
0000f0 9b 3a 63 bd 2b 1c e6 bc 82 d8 92 be b6 a7 7b be
       -0.055475812 -0.028089603 -0.28680807 -0.24575695
000100 7f 30 5d be c6 02 53 3e 8d 1f d4 bb 49 e3 10 3e
       -0.21600531 0.20606527 -0.0064734877 0.14149202
000110 70 a2 66 be 60 3a 36 3c a7 8f 2a 3e 03 a3 1f 3e
       -0.22522902 0.011122316 0.16656362 0.15589528
000120 51 0e 01 3e a1 10 33 be 78 b6 a3 3e 1f f4 3d be
       0.12603118 -0.17486812 0.3197515 -0.18550156
000130 c2 0f 59 3e ca 1a 99 3e 2e ab f6 bd 4c 2b 27 3e
       0.21197417 0.2990325 -0.12044369 0.1632511
000140 f8 1e 4b be 44 fc 90 3e 1e 5f 3b be 46 29 5f 3e
       -0.19836032 0.28317463 -0.18298003 0.21793088
000150 9b 32 93 be 8f 83 52 3e 9c 73 90 3d 49 78 38 bc
       -0.28749546 0.20557998 0.07053301 -0.011259147
000160 f7 52 47 3e 9a 79 e2 bd 07 bd 7a be 5b 59 9b be
       0.19465242 -0.1105835 -0.2448617 -0.3034161
000170 ec d0 b0 3e 9d ba 06 be 28 a8 e3 3c c8 27 e6 bd
       0.34534395 -0.13157125 0.027790144 -0.112380564
000180 62 5c 2c 3d 91 40 b5 3e 37 7f f0 bd e1 92 94 3c
       0.04208029 0.35400823 -0.11743014 0.018136444

mlp.2.bias f4 [10]
000000 d8 4a 96 bd b2 2f 00 be 8d 85 2c bc 4a 47 0c be
       -0.07338494 -0.12518194 -0.010529888 -0.1369907
000010 ea 7d 65 be 35 65 d0 3e da 5a 60 3e 77 26 1e be
       -0.22411314 0.40702215 0.21909657 -0.1544436
000020 f6 15 8d be f9 5c 52 3e
       -0.27555817 0.20543279

mlp.4.weight f4 [10, 10]
000000 b5 9c 35 be 6a ad 68 be fc e8 16 bc d4 e0 6f be
       -0.1773556 -0.22722402 -0.009210821 -0.23425609
000010 ea 58 8c bb 55 1e 86 3d bc 1b 2f 3e a1 ce 40 3e
       -0.0042830603 0.06548754 0.17100424 0.18828823
000020 89 82 94 ba 41 f3 3b 3c ae 7d 7c bd b1 3d 6f be
       -0.0011330406 0.0114715705 -0.061643295 -0.23363377
000030 b8 38 15 bd 3e e3 ea 3d 98 36 65 be 7c be 11 be
       -0.036431044 0.11469124 -0.22384107 -0.1423282
000040 df cc 87 3e 43 e5 99 bd f1 66 2d 3e 29 f0 52 3e
       0.26523492 -0.07514431 0.169338 0.20599426
000050 0d 70 5f 3e 89 3a 52 3e 16 95 00 3e f9 6b 87 3d
       0.21820088 0.20530142 0.12556872 0.06612391
000060 1a de 71 be e6 99 55 be 72 0c 5e be fc 10 71 3d
       -0.23619881 -0.20859489 -0.21684435 0.05885409
000070 a6 6a 8a 3e 89 12 f7 3d f1 da 89 be 8d 72 e4 3d
       0.2703449 0.12064082 -0.26924852 0.11154661
000080 06 3a 4d 3e c2 5f 73 be a1 a9 9a bc 47 f3 14 bd
       0.20041665 -0.23766997 -0.018879713 -0.03636482
000090 5c ae af bc b0 8c a7 bd 02 d7 88 be b9 fa b5 bd
       -0.021445446 -0.08181131 -0.26726538 -0.08885712
0000a0 9f 1b 86 3e 0c 2c 9a 3d 7e 5c 07 3e bd 11 71 3d
       0.26192948 0.075279325 0.13218877 0.058854807
0000b0 54 ff 95 3e e2 a8 98 3e bd ec 7b 3d 3e 66 9f 3d
       0.29296362 0.29816347 0.061505068 0.07783173
0000c0 48 a3 e6 bd 45 e1 a6 bd 6c 43 5f be cc 98 9b 3d
       -0.11261612 -0.081484355 -0.21803063 0.07597503
0000d0 13 e1 d7 3d 60 0f 25 3e 4c e9 92 be 85 98 d5 be
       0.105409764 0.16119146 -0.28693616 -0.41717926
0000e0 26 1b 4e be 90 3c d6 bd e7 25 bb be aa 28 33 be
       -0.20127544 -0.1046077 -0.36552355 -0.17495981
0000f0 8d 14 65 bd aa 12 71 3e 90 a1 8e 3d 07 84 46 be
       -0.055927802 0.23542276 0.06964409 -0.19386302
000100 5a 72 5a 3e 89 79 97 be 0b 74 45 3e 80 e7 2a 3e
       0.21332684 -0.2958491 0.19282548 0.16689873
000110 c5 b4 93 be 9a da 63 3d 8d 23 51 3e 5b f3 9e be
       -0.28848854 0.055628397 0.20423718 -0.3104504
000120 21 90 37 3d f1 6d 7d be 48 4b 06 be 5e bc 52 bd
       0.044815186 -0.2474897 -0.13114655 -0.051449172
000130 c5 47 a1 be 3b f1 1e be 41 9d 64 3e f0 de 11 3e
       -0.31500068 -0.1552171 0.22325613 0.142452
000140 9e 24 8f be ac 50 18 bd 8a 04 47 3e 62 5a 00 be
       -0.27957624 -0.03718631 0.19435325 -0.12534478
000150 57 87 04 be 22 6b bd bd 05 a8 63 be 9e f4 84 3c
       -0.12942253 -0.092489496 -0.22232063 0.016229924
000160 92 8b eb bd 7b 5b a0 3e 53 0a 28 be 0f fd 53 be
       -0.1150123 0.31319794 -0.16410188 -0.20702003
000170 26 28 66 be 3b e3 14 bd dc 1d 8a be 9d 9f 48 3e
       -0.22476253 -0.036349516 -0.26975906 0.19592138
000180 7e 88 ed bc 3f 6d 63 3e 27 5f 8c be 47 78 a4 3e
       -0.028995749 0.22209643 -0.27416345 0.32123014

mlp.4.bias f4 [10]
000000 18 23 db 3c 0b c9 12 be d8 60 4d be c3 5b 6c be
       0.026750132 -0.14334504 -0.20056474 -0.2308188
000010 85 6e 4a 3e 41 eb 77 bd c4 a0 eb 3d 9d 63 ae be
       0.19768722 -0.06052709 0.11505273 -0.34060374
000020 20 65 69 3e 53 0d 85 be
       0.22792482 -0.25986728

mlp.6.weight f4 [4, 10]
000000 a0 6d 8f be 34 ec 82 3c ba 91 8c 3e df c9 f7 3d
       -0.28013325 0.015981771 0.2745493 0.12099051
000010 8f 08 03 3e c9 14 16 be 2a c4 7a bd 9a 50 1b 3d
       0.12796234 -0.14656366 -0.061222233 0.037918665
000020 a9 90 6c 3e b1 40 e2 3d 0e 14 96 3d de 4d 42 be
       0.23102058 0.11047495 0.07328044 -0.18975016
000030 86 d9 83 be 1d e6 a4 3d 9b 7b 32 3d f1 f4 a7 be
       -0.25751895 0.08051703 0.04357491 -0.32804063
000040 e6 58 17 be 2f c1 13 3e d4 0b b4 bd b9 50 5f 3e
       -0.14780006 0.14429162 -0.087913185 0.21808137
000050 d6 87 23 be 75 5b 0d bd e3 33 41 3e 00 08 80 be
       -0.15969786 -0.03451105 0.1886745 -0.25006104
000060 62 6b 20 3e 12 b5 3f 3e 6d c2 2b 3e e9 92 94 bd
       0.15665963 0.18721417 0.16773386 -0.072545834
000070 95 7c 05 be f9 b9 e8 bc af 53 41 be 71 52 8c be
       -0.13035806 -0.028408991 -0.18879579 -0.27406648
000080 9e 39 a9 3e 81 4f 3d be be dc 8b be 06 c7 89 3e
       0.3305177 -0.1848736 -0.2731685 0.26909655
000090 63 75 ab 3e 98 f0 e8 3c 01 51 39 bd 2c 77 0b bd
       0.33487996 0.028435037 -0.045243267 -0.034049198

mlp.6.bias f4 [4]
000000 86 4c 81 bb 64 b7 2e 3e d5 d1 41 be a9 f2 ca bd
       -0.00394589 0.17062145 -0.18927701 -0.09909565
