trainedNet_40_10000_50_70_rew730k.pt (torch, 3855 bytes, 8 tensors)

mlp.0.weight f4 [10, 6]
00000000: e0d5 15be c10b 423e a5c2 e4be c116 cdbe
00000010: 76d8 313e 859d 4abe 313b 9a3e 1831 b13e
00000020: 884c 083e 0669 c53e 6e93 93be a806 1dbd
00000030: 58f5 933e b9a1 1abe 1fb1 f3be cd35 823e
00000040: 3d22 463e 27c6 a43e 79cd 82be d023 2cbe
00000050: 9dd1 0bbd 83f6 313d f557 8b3e e6c8 a3be
00000060: 3880 2fbc 43a1 8d3e c80d 95be 866d 533e
00000070: 64ba 823e 9248 6a3e 6aba 983c cf41 27be
00000080: f27a 8d3c bc04 f53c 7fb0 c1be 42f1 80be
00000090: ecf1 acbe ab9b ff3d 3430 b1be 9d51 aabe
000000a0: a3b1 db3e e0f0 9b3d 5028 48bc aa5b 69be
000000b0: 7687 6a3c 6bc5 193e 00d0 723e 06f4 bb3d
000000c0: 7d48 d53e 568a 5a3e 1bd1 653d c9bd f23d
000000d0: 1e4a a2be 272e 5cbe d41a 8f3d df7c 7ebe
000000e0: 7650 0e3e 2ba8 00be 39c2 d13e 153d 29bd
-0.14632368 0.18949796 -0.44679752 -0.40056422 0.1736773 -0.19786651 0.30123284 0.34607768
0.13310444 0.3855669 -0.28823417 -0.038336426 0.2889812 -0.15100755 -0.4759607 0.25431672
0.19348998 0.32182428 -0.25547388 -0.16810536 -0.03413545 0.043447983 0.27215543 -0.3198921
-0.010711722 0.27662095 -0.29112077 0.20647249 0.2553283 0.22879246 0.018643577 -0.16333698
0.017270539 0.029909484 -0.37829968 -0.25184065 -0.33778322 0.12480863 -0.3460709 -0.3326539
0.42908964 0.07614303 -0.0122166425 -0.22788873 0.014314523 0.15016715 0.23712158 0.09177403
0.41656867 0.21341833 0.05610762 0.11852605 -0.31697172 -0.2150198 0.06987539 -0.24852322
0.13897881 -0.12564151 0.40968493 -0.041318018

mlp.0.bias f4 [10]
00000000: c7ea 54be abc4 81be 2120 a03e fb56 a5be
00000010: fa70 2c3e 3d24 ec3d b545 0abd 473e 80be
00000020: 3e8a babe 25ef ac3e
-0.20792685 -0.25345358 0.31274512 -0.32292923 0.16839972 0.115303494 -0.033757884 -0.25047514
-0.36433595 0.33776203

mlp.2.weight f4 [10, 10]
00000000: b3f8 b83d 912f 98bd c6a2 7e3e 7299 b0be
00000010: fa85 043e 3bbd a03c c36b b6be 8ca4 9bbe
00000020: 5844 51bd 0d92 10be 61d7 1b3e c231 a2be
00000030: fbaa 543e c40a 92bd 7af1 86be a770 b23e
00000040: 667a 923e 8ff1 ab3e 8275 07be 3427 cfbd
00000050: 27f8 fabd a8e1 2dbd 6fc0 833d 1a6a 313d
00000060: 912d 8fbe 6370 aebd 79ee 5dbe cc78 513e
00000070: c766 0dbe 8f31 82bd 64a7 9f3e aebc 59be
00000080: 19bb 8fbe 6b7f 8cbe eee6 7ebe 0f62 bc3d
00000090: 96cc e8bd 6404 4a3d db48 f93a efb9 95bc
000000a0: 3dd0 8a3e 571b 903d ca61 d5bd 05d3 963e
000000b0: 8c3d 53be 8198 883e e9b2 e93d 8086 8a3d
000000c0: c1a0 55be 6766 8cbe b4b2 0fbe 76d7 483e
000000d0: de3f 80be 82d6 0b3c 3d85 d33d 2498 16be
000000e0: 88b2 7cbd 916e 873d 1461 fc3d 7a62 9bbe
000000f0: f2a6 92bd 2b8d 03bc c551 92be 1bae 88be
00000100: 2723 5abe 357f 493e 3196 08bd edc0 063e
00000110: 108c 53be 35c9 23bc 196c 283e 5e5d 393e
00000120: 7eb1 fb3d e921 31be b3c4 ad3e e43a 3dbe
00000130: 7722 493e 2682 973e 03dd c5bd 5d61 263e
00000140: ef2a 4cbe e80a 943e e606 42be 09a3 593e
00000150: d6f6 8fbe fe58 4c3e 21c0 8d3d 24ee 8dbc
00000160: c459 4b3e a1b0 edbd 5082 55be 9917 acbe
00000170: af2c ac3e 2e85 dabd 4e47 143d a875 f5bd
00000180: eb2a a83d d7b3 ba3e ddae 16be b3cd 273d
0.090318106 -0.074309476 0.2486678 -0.3449207 0.12941733 0.019621482 -0.3562909 -0.30398977
-0.05109057 -0.14118214 0.1521888 -0.31678587 0.20768349 -0.0713096 -0.26356107 0.34851572
0.28609008 0.33582732 -0.1322842 -0.10114899 -0.122543626 -0.04245153 0.06433188 0.043314077
-0.27964452 -0.0851753 -0.21673001 0.20456237 -0.13808738 -0.06357109 0.31182396 -0.21263382
-0.28072432 -0.27440962 -0.2489278 0.09198391 -0.11367147 0.049320593 0.0019018905 -0.018277137
0.27111998 0.07036465 -0.104190424 0.2945787 -0.20628947 0.2667885 0.114110775 0.06763935
-0.20862104 -0.27421877 -0.14033014 0.19613442 -0.25048727 0.008535029 0.103281476 -0.14706475
-0.0616937 0.06612886 0.12323204 -0.3034857 -0.071607485 -0.008029263 -0.2857801 -0.26695332
-0.21302472 0.19677432 -0.03334636 0.13159533 -0.20658898 -0.009996702 0.16447486 0.18102023
0.12289713 -0.17298092 0.33939132 -0.18479496 0.19642054 0.29591483 -0.09661295 0.16248079
-0.19938253 0.2891457 -0.18947944 0.21253599 -0.28118008 0.19955823 0.06921411 -0.017325468
0.19858462 -0.11605955 -0.20850492 -0.33611754 0.3362784 -0.10669933 0.036200814 -0.11985332
0.08211311 0.36465332 -0.14715143 0.040967654

mlp.2.bias f4 [10]
00000000: 9c8f 15bd 99df 04be f5ef 73bc 4a78 ffbd
00000010: 6242 56be 9ae6 da3e 8437 533e 32ff 19be
00000020: f57c 84be 2b18 4f3e
-0.03651391 -0.1297592 -0.014888753 -0.12474115 -0.2092376 0.4275406 0.20626646 -0.15038756
-0.25876585 0.20224063

mlp.4.weight f4 [10, 10]
00000000: f6d1 0bbe d29a 73be 4688 96bc 7888 7fbe
00000010: ca06 03bd 21ac a53d 009b 233e 1fcc 3f3e
00000020: 745f ec3c 6dd1 df3b 2fc0 7cbd f96b 6dbe
00000030: 5b0e 67bd 8f13 f83d 5a73 59be 0115 08be
00000040: 3cca 8b3e be96 9dbd 2cb4 3e3e 241e 443e
00000050: 0026 4a3e 9098 4b3e 593c f23d 8281 883d
00000060: 95d4 76be 099b 68be af42 5fbe 31ff 773d
00000070: c8ce 8a3e 35dc e63d 08f4 90be 9ef2 e23d
00000080: e80c 503e 36f1 72be aec4 9cbc 9c8d 80bd
00000090: f56e b6bc cd42 a6bd fe8c 99be a347 b1bd
000000a0: 16eb 983e 29c6 a23d 6ca1 e53d e445 723d
000000b0: a135 9c3e 4359 a33e 6943 893d 8904 9b3d
000000c0: c6ac aabd 6451 c4bd 9f68 84be 7acc 8d3d
000000d0: 006d d73d f523 343e 3b44 91be d6b8 e1be
000000e0: 6b6a 46be 3bb7 d3bd c954 ccbe 8d17 33be
000000f0: 9a3a c9bd f56b 683e 15f6 a83d ed52 50be
00000100: 3398 513e 0b60 9abe f1b0 333e 8a7c 3f3e
00000110: 29ff 9fbe a5dc 823d 1603 593e 86ae 9fbe
00000120: 2437 853d 8d98 82be 9a50 12be 33b7 73bd
00000130: ea85 a5be f8e3 1bbe 6bbb 533e 20c2 213e
00000140: 4450 a4be 04ff 2fbd 5a32 403e 944a ebbd
00000150: d063 00be c9dc d3bd 0b0f 63be 225c df3c
00000160: c6d4 17be 428f 9d3e c18a febd 2185 50be
00000170: 9bf6 5bbe bba0 61bd 5652 8fbe b4f0 573e
00000180: d791 23bd 3e36 643e 6aca 7bbe f88e a93e
-0.13654312 -0.23789528 -0.018375527 -0.24954402 -0.031988896 0.080894716 0.15977097 0.1873021
0.02885411 0.0068303854 -0.061706718 -0.2318572 -0.056410175 0.121131055 -0.2123541 -0.13289262
0.2730273 -0.076947674 0.18623418 0.19152123 0.19741058 0.19882417 0.11827917 0.06665327
-0.24104531 -0.22715391 -0.21802782 0.060546104 0.27110887 0.1127247 -0.2831118 0.11081432
0.20317423 -0.23724827 -0.019136753 -0.0627701 -0.022269705 -0.0811821 -0.2999038 -0.08656242
0.29866856 0.07947952 0.112124294 0.059148684 0.30509666 0.3190404 0.067023106 0.075692244
-0.08333735 -0.095858365 -0.2586107 0.069237664 0.10518837 0.17591842 -0.28372368 -0.4408633
-0.19376533 -0.10337683 -0.39908436 -0.17489453 -0.098256305 0.22697432 0.082500614 -0.20344134
0.20468216 -0.301514 0.17547967 0.18699852 -0.3124936 0.06389741 0.21192583 -0.31187838
0.06504658 -0.25507012 -0.1428856 -0.059500884 -0.3232873 -0.15223682 0.20676963 0.15796709
-0.32092488 -0.04296781 0.18769208 -0.11488834 -0.12538075 -0.10344846 -0.22173707 0.027265612
-0.1482726 0.3077336 -0.12428809 -0.20363285 -0.21480791 -0.055084925 -0.27992505 0.21087915
-0.039934006 0.22286317 -0.24588934 0.3311689

mlp.4.bias f4 [10]
00000000: 9452 a23c 807a 05be 4469 57be 5eea 71be
00000010: 119c 5a3e 63d8 88bd ad7c eb3d 1b85 b4be
00000020: c35b 6a3e c783 82be
0.019814767 -0.13035011 -0.2103625 -0.2362456 0.21348597 -0.066818975 0.114983894 -0.352578
0.22886567 -0.25491163

mlp.6.weight f4 [4, 10]
00000000: 2bf8 8fbe 92d7 8b3c 32d8 893e 841f ff3d
00000010: 496c f83d 423b 0bbe 060f 51bd 9756 123d
00000020: dbba 6c3e 6245 d03d 333e 983d 436b 43be
00000030: fe1f 81be 7b90 9d3d 46c5 4d3d b761 adbe
00000040: 30c6 21be b3ff 153e 3360 b4bd 604e 683e
00000050: c888 1cbe f826 66bd 165e 3a3e 4037 86be
00000060: 9b6f 343e da17 2e3e 965b 183e 0fb4 afbd
00000070: b2cf 11be 4bf9 15bd bf52 48be 0239 81be
00000080: 81a4 ac3e 00f1 30be dcde 95be a295 923e
00000090: d128 b53e a2ba 2a3d 9e04 08bd d3b5 d3bc
-0.28119025 0.017070565 0.26922756 0.12457183 0.12130029 -0.13596824 -0.051039718 0.03572711
0.23118155 0.10169484 0.074337386 -0.19083886 -0.2521972 0.07693573 0.050236963 -0.33863613
-0.15798259 0.14648323 -0.08807411 0.22686148 -0.15286553 -0.056189507 0.18199953 -0.26214027
0.17620699 0.17001286 0.14878687 -0.08579265 -0.14239386 -0.036614697 -0.19562815 -0.25238806
0.33719257 -0.17279434 -0.2927159 0.28629786 0.35382703 0.041681893 -0.03320753 -0.025843536

mlp.6.bias f4 [4]
00000000: 78b5 b1ba 6d10 2c3e c402 31be cd90 ecbd
-0.001355811 0.16803141 -0.17286211 -0.11551056
